ai_mcts/models/alphasort_value_4c_4cap.pth (torch, 468717 bytes, 15 tensors)

conv1.weight f4 [64, 13, 3, 3]
000000 17 ee 71 bd d0 76 81 bd 22 bd c0 3d be 80 6f 3b
       -0.05906495 -0.0632149 0.09411074 0.0036545242
000010 42 83 f6 3c 8c 80 eb bc 39 2d a0 bc d9 68 f5 39
       0.030091885 -0.02874782 -0.019552814 0.0004680816
000020 4f c6 f0 bc 47 2d 7f bd 29 02 12 bd 41 2c 0a 3c
       -0.029391436 -0.06229904 -0.03564659 0.0084334025
000030 b7 ec 6a bc f7 2d cd 3c 54 a3 93 3b 61 68 c5 bd
       -0.014338664 0.025046332 0.004505554 -0.09639049
000040 f6 cc 90 3c ae 5f 69 bd 42 5b cc 3d 22 dd f8 bd
       0.017675858 -0.056976013 0.099783435 -0.12151553
000050 c0 77 8d bd 04 c6 a9 bc cf 9b bd bc 81 41 6a 3d
       -0.06907606 -0.020724304 -0.023145584 0.057191376
000060 ca 54 a0 bd 28 79 aa 3d ae e6 b6 bc a7 8a f7 3c
       -0.07828672 0.0832389 -0.022326794 0.030217482
000070 e1 52 7b bd e0 ec 70 bc 5f 74 41 3d 0c ae 92 3c
       -0.061358336 -0.014704913 0.04723012 0.017905258
000080 ee 40 b7 bd da 66 9a 3c 04 a6 90 3d 03 19 90 bd
       -0.08947931 0.018847872 0.07062915 -0.070360206
000090 d4 aa ba bc 1e 30 94 bd 86 33 70 3a 59 e6 bd 3d
       -0.022786535 -0.0723574 0.0009162951 0.09272451
0000a0 8c 7e 9d bd 54 f2 a5 bd 4a a4 8e bd 8f 17 9d 3d
       -0.076901525 -0.08102861 -0.069649294 0.07670509
0000b0 3d b5 c2 bc 1f 19 ab 32 9e ec e7 af 0c 1a 3c b3
       -0.023768062 1.9918444e-08 -4.2186782e-10 -4.379585e-08
0000c0 3b d5 aa 2f b1 60 2f b1 76 a1 70 2d d8 ec ba 31
       3.107433e-10 -2.5520814e-09 1.3678272e-11 5.4402385e-09
0000d0 1f 84 87 b2 8a 36 fe b3 eb 6d 62 ae 1e bb 5c 32
       -1.577615e-08 -1.1837717e-07 -5.1484077e-11 1.2848231e-08
0000e0 72 28 48 af 2f 43 84 ae c8 16 b3 30 c8 41 1e 30
       -1.8204263e-10 -6.014599e-11 1.3030439e-09 5.7573546e-10
0000f0 17 8a f1 af 14 8d 20 af f1 7c b7 ae 02 31 35 b1
       -4.3935763e-10 -1.4602036e-10 -8.3440706e-11 -2.6366824e-09
000100 87 f7 f7 2e 73 11 7f b0 14 79 2a b2 f5 74 cf b0
       1.1276229e-10 -9.2793256e-10 -9.922832e-09 -1.5094473e-09
000110 71 b7 80 2f 78 2d 31 b2 3c b3 b3 2f 97 96 f8 b4
       2.3413407e-10 -1.0313094e-08 3.2687264e-10 -4.6303168e-07
000120 e4 31 89 2f bb d4 47 b2 bb c1 8b 2d 5c db 69 ae
       2.4955604e-10 -1.1631694e-08 1.5888504e-11 -5.3172897e-11
000130 01 25 85 2f 8a 7d 66 ae 3e ee 1a 33 c9 18 27 af
       2.4218852e-10 -5.2407446e-11 3.60726e-08 -1.5197367e-10
000140 2e 3b c9 31 7c 7a 80 b3 be 90 6b b2 10 32 82 b0
       5.856598e-09 -5.982744e-08 -1.3711711e-08 -9.472974e-10
000150 0c ce 65 b4 9b 98 26 33 bd 9f 5b b2 b8 35 59 31
       -2.1402246e-07 3.878868e-08 -1.2783798e-08 3.1608192e-09
000160 c4 71 59 b0 d4 84 ac 29 f3 f8 87 b2 95 c2 80 33
       -7.910581e-10 7.6613764e-14 -1.5829277e-08 5.995859e-08
000170 cd 42 d1 b0 f4 11 24 2e 91 ab 27 b2 2c 14 19 ae
       -1.5225737e-09 3.730523e-11 -9.759689e-09 -3.480609e-11
000180 ec 16 17 b0 45 e9 13 2d a4 27 71 b2 ca fc 68 b0
       -5.4966054e-10 8.407779e-12 -1.40370595e-08 -8.4760343e-10
000190 43 e2 7e 2d 5d e5 2c 33 20 f8 94 2e 67 21 61 33
       1.4488469e-11 4.0255475e-08 6.7743366e-11 5.2417274e-08
0001a0 6a f5 74 34 46 95 84 ae 77 a7 6a af f1 e5 c6 32
       2.2813552e-07 -6.029181e-11 -2.1341671e-10 2.3154799e-08
0001b0 7a c1 40 30 9b 72 33 b0 5a 55 8d 30 ee a6 e4 af
       7.012414e-10 -6.5282685e-10 1.0283359e-09 -4.159157e-10
0001c0 79 84 1d ae 6a 38 b0 ad 0d a8 c7 b1 09 89 30 b2
       -3.5815326e-11 -2.0033936e-11 -5.8107674e-09 -1.02757065e-08
0001d0 49 1e 1c af d9 20 18 bd 62 3e 12 bd 32 f1 7c bd
       -1.4198877e-10 -0.0371407 -0.035704024 -0.06175346
0001e0 65 8c af bd 1c 14 a6 bd bd 95 62 bd e2 a1 5a bd
       -0.085717 -0.08109304 -0.055318583 -0.05337704
0001f0 ee 96 fb 3c e8 dd b6 3b a9 6b 15 3c 08 94 8e 3d
       0.030711617 0.0055806525 0.009119906 0.069618285
000200 17 21 da bd 0f 22 84 bc 8f 11 7d bd cd 12 2e bc
       -0.10650843 -0.016129522 -0.061784323 -0.0106246
000210 ba 0e e1 bb 27 eb da 3c c8 02 0f 3d 40 23 88 3c
       -0.0068682106 0.026723458 0.03491476 0.016618371
000220 62 99 06 3c bb a5 86 3d 11 ba e5 bc 50 97 6c 3d
       0.00821528 0.06574579 -0.028042825 0.05776149
000230 87 8e 85 3c 9c 17 6c bc 9b a1 c1 3d 91 ea 15 bd
       0.016303314 -0.014409926 0.09454652 -0.036600653
000240 08 a9 c4 bb d4 1f 3e 3d d4 74 c4 3b fa ac 21 3d
       -0.0060015954 0.046417072 0.0059953723 0.039471604
000250 8d b4 6d bc 50 d9 f4 3d 04 3d d7 bc c6 9f 76 bd
       -0.014508379 0.119555116 -0.026274212 -0.060210966
000260 16 dc 87 3b a2 ec 55 3d d1 1b 4b 3d 90 99 b2 bc
       0.0041461093 0.052227624 0.049587075 -0.02180174
000270 68 f8 42 3d 85 9b 34 3d e5 42 3a 3a 2e 54 05 3d
       0.04760018 0.044093627 0.0007105305 0.032550983
000280 76 61 26 3d cd f3 49 bd 67 f6 da b0 a1 a1 26 ae
       0.04062029 -0.049304772 -1.5931619e-09 -3.7887585e-11
000290 84 c5 90 31 fc 74 2c b0 2a 95 a8 2e fa 29 21 2f
       4.2134065e-09 -6.273948e-10 7.6662524e-11 1.4657778e-10
0002a0 0d 9d f6 b4 75 42 b1 33 39 aa 34 b0 6d 56 61 31
       -4.593534e-07 8.254293e-08 -6.572552e-10 3.2790937e-09
0002b0 3e 84 42 30 ed 98 43 af 2d 28 db b1 86 ed c8 30
       7.0764716e-10 -1.7789477e-10 -6.3783063e-09 1.4619423e-09
0002c0 22 6f 7c b0 17 05 a9 2f be 18 88 b0 ab 4f 41 ae
       -9.1834995e-10 3.0744537e-10 -9.902335e-10 -4.395388e-11
0002d0 d1 b2 69 b1 0d 18 ce 2f 50 08 8c b2 ad d3 bc 30
       -3.4007608e-09 3.748827e-10 -1.6301925e-08 1.3738962e-09
0002e0 59 94 37 32 30 fa 4f b1 c6 45 05 b1 12 a7 55 b4
       1.0685732e-08 -3.026468e-09 -1.9393709e-09 -1.989795e-07
0002f0 02 d7 ed af 84 06 88 b0 0a c1 ba 31 8e 38 a9 b0
       -4.326282e-10 -9.897154e-10 5.4352585e-09 -1.2312442e-09
000300 f7 d8 0b 2e d3 21 b8 2e 63 b9 c8 b0 82 c2 50 af
       3.1797644e-11 8.3733596e-11 -1.4604605e-09 -1.8986593e-10
000310 8d d4 33 af 65 16 93 af e0 e0 e5 ab f6 af bc b4
       -1.6355468e-10 -2.6755057e-10 -1.6333844e-12 -3.5145757e-07
000320 a3 56 b6 ae 84 9c df af 11 3a 2d af bf 8c ef b4
       -8.2917916e-11 -4.0674675e-10 -1.5754888e-10 -4.4619625e-07
000330 96 d6 6f 31 0b 24 bc 30 f9 9a 7f 2f 35 47 6c 30
       3.4901055e-09 1.3689044e-09 2.3247172e-10 8.595749e-10
000340 7b 2b 12 b3 6d 1d 6e 2f d2 24 3d 2d af 90 84 33
       -3.403282e-08 2.1656428e-10 1.0751582e-11 6.173047e-08
000350 e9 3d fa 34 6a 08 53 30 2c d6 d3 ae 56 f9 6b b2
       4.6611174e-07 7.677331e-10 -9.633214e-11 -1.3735493e-08
000360 55 f6 4d 30 c9 3b 70 31 6d e0 04 30 99 9c 0b af
       7.4928624e-10 3.495858e-09 4.834025e-10 -1.2697611e-10
000370 78 d9 5f b2 c4 db 44 2e 20 1a cd 31 43 ca 0f ae
       -1.3029755e-08 4.476043e-11 5.9692553e-09 -3.269408e-11
000380 5c e0 30 31 96 73 d6 34 eb 86 c9 b4 80 41 f8 af
       2.5738904e-09 3.9944706e-07 -3.7537333e-07 -4.5157478e-10
000390 ad b1 96 b0 12 eb 05 31 43 7c 24 b4 f5 92 06 af
       -1.0964435e-09 1.948767e-09 -1.5318896e-07 -1.2239439e-10
0003a0 e9 fa f9 2f 9d 34 86 b0 ee 47 94 bd 15 df e6 bc
       4.5471119e-10 -9.764737e-10 -0.07240282 -0.028182546
0003b0 68 f0 49 3d 18 93 16 bd b2 e8 44 bd 31 0d ae bd
       0.049301535 -0.036761373 -0.048073478 -0.0849861
0003c0 df a0 91 bd 26 d4 ff 3c cc e8 86 3b db 3b 8a 3d
       -0.07110762 0.03122909 0.004117107 0.06749698
0003d0 ba 77 b5 bd 18 5c 3e 3d 44 f4 6a 3c d2 0d 3c bd
       -0.08860727 0.046474546 0.014340464 -0.045911618
0003e0 7a d8 d5 bd e9 79 ac 3d 30 e6 59 ba a6 70 d9 3d
       -0.1044168 0.0842169 -0.00083121937 0.10617189
0003f0 b8 af c8 bd c9 40 95 3d ae b2 b6 3d 24 b3 66 3d
       -0.09799141 0.072877474 0.08920799 0.056323186

conv1.bias f4 [64]
000000 f4 13 a8 bc 9a 14 6a bc 2d ad 46 3b a8 21 63 3a
       -0.020517327 -0.014287138 0.0030315623 0.0008664378
000010 b4 ff 23 bb 77 54 59 bc 56 d0 a8 bc f2 f5 79 ba
       -0.0025024237 -0.013264767 -0.020607155 -0.0009535245
000020 dc e0 43 bb 73 ae ba bb 31 2e 47 bc 82 4e 9e 3b
       -0.0029888665 -0.0056970655 -0.012157009 0.004831136
000030 4c 92 6b 3c 54 9a cc ba 53 42 d8 bb 4a 5d 5e bc
       0.014378142 -0.0015609958 -0.0065997033 -0.0135720465
000040 59 b8 0d bc 8a 6d d7 3c 88 46 9e bc 18 36 1a bd
       -0.008649909 0.02629735 -0.019320741 -0.037649244
000050 36 d9 b8 3a f9 0d 2d bc 39 e6 61 3c 10 ee d0 3c
       0.001410282 -0.010562413 0.0137877995 0.025504142
000060 00 d2 45 3c dc ae 29 3c 06 46 c0 3c 48 09 83 bc
       0.012073994 0.010356631 0.02347089 -0.015995637
000070 8f da b0 bc 9c b4 0f 3d 94 92 81 3c 91 63 b7 3c
       -0.021588592 0.035084352 0.015816964 0.022386344
000080 83 6e 86 3c b1 a9 a0 3b cd 5a 67 3b 27 68 e5 bb
       0.016410118 0.0049030413 0.0035301924 -0.0070009413
000090 99 7c 96 3b 28 8d 43 bd 84 e7 60 bb 6b 75 dc bc
       0.00459249 -0.04774204 -0.0034317682 -0.026911458
0000a0 7e c8 13 bd 0d 4c 49 3c 7d c2 d1 b9 b4 4e 8a 3c
       -0.036079876 0.012286198 -0.00040008491 0.016883232
0000b0 f6 8f 81 bb b0 b7 15 bc 40 71 29 3b ed 8c 04 3d
       -0.003953929 -0.009138033 0.0025854856 0.03236096
0000c0 c7 b1 7d bc aa 93 0b bd 1d 39 8e bb b7 f2 a5 3c
       -0.01548428 -0.03407637 -0.0043403045 0.020257337
0000d0 bc a3 55 3c 78 a7 73 bb 07 ec 36 bc 1c a3 e9 3c
       0.013039526 -0.0037178677 -0.011164672 0.02852016
0000e0 f9 fe eb 3c ba a6 02 3c 2d 74 02 bc ec ff 92 3a
       0.028808104 0.007974321 -0.007962269 0.0011215187
0000f0 bb 0b 52 bc 0b fb 0e bd c0 75 71 bb 1a 6f fa bc
       -0.01282018 -0.034907382 -0.0036843866 -0.030570555

bn1.weight f4 [64]
000000 08 54 80 3f 09 12 83 3f a1 39 80 3f 32 9c 7c 3f
       1.0025644 1.0239879 1.0017587 0.98675835
000010 4a 51 7a 3f 6d a6 81 3f b6 a2 7d 3f 2c b0 71 3f
       0.9778029 1.0128914 0.990764 0.9440944
000020 40 34 85 3f 45 e2 80 3f 24 ff 7a 3f ac 74 78 3f
       1.040657 1.0069052 0.98045564 0.9705303
000030 26 63 7c 3f b9 90 81 3f d3 f6 70 3f 8f 56 81 3f
       0.9858879 1.0122291 0.94126624 1.010454
000040 ef 85 81 3f ea 86 82 3f b2 5a 73 3f bc 67 83 3f
       1.0118998 1.0197423 0.95060265 1.0266032
000050 06 65 76 3f ed af 79 3f 52 6a 84 3f b2 55 86 3f
       0.962479 0.97534066 1.0344946 1.0494902
000060 3d 09 83 3f f0 07 87 3f 26 ad 86 3f d0 1c 70 3f
       1.0237194 1.0549297 1.0521591 0.93793964
000070 69 df 85 3f 73 cd 80 3f 9e 0c 89 3f 85 86 82 3f
       1.0458804 1.0062698 1.0706975 1.0197302
000080 76 aa 72 3f 66 a0 84 3f 88 2c 74 3f 9c fb 7b 3f
       0.9479135 1.036145 0.9538045 0.984308
000090 f1 14 69 3f 4e f4 87 3f c6 66 69 3f de 65 7f 3f
       0.9104758 1.0621431 0.91172445 0.9976481
0000a0 bd 07 7d 3f 97 9a 7d 3f b3 33 7d 3f fb 63 7c 3f
       0.9883993 0.9906401 0.9890701 0.9859006
0000b0 92 d3 73 3f 9e 51 73 3f bd 32 81 3f 62 dd 7a 3f
       0.95244706 0.9504641 1.0093609 0.97994053
0000c0 07 6c 73 3f 23 d3 80 3f c6 2f 7f 3f d2 45 81 3f
       0.9508671 1.0064434 0.9968227 1.0099432
0000d0 be c2 80 3f ce 4a 80 3f 26 52 82 3f 93 39 84 3f
       1.0059431 1.0022829 1.018132 1.033007
0000e0 38 68 82 3f 8a 7a 81 3f d5 f5 71 3f cf 15 84 3f
       1.0188055 1.0115521 0.94515735 1.0319155
0000f0 92 ea 82 3f 82 1d 81 3f 76 8e 6e 3f ba 3f 6e 3f
       1.0227835 1.008713 0.9318613 0.9306599

bn1.bias f4 [64]
000000 44 1c 86 bd 05 68 6e bd 38 48 9c bd 9f 1b b3 3b
       -0.0654836 -0.05820467 -0.07630962 0.005465939
000010 63 66 16 bc bd 4a 95 bc e5 23 5c bc 4e 47 16 b9
       -0.009179684 -0.018224115 -0.013436292 -0.00014331678
000020 3d 8d 4f bd 4b fa 8e 3c 4a 75 49 bd 4d 0a 05 bd
       -0.050671805 0.017453333 -0.04918412 -0.032480527
000030 1b 24 07 bd ed ab d9 bc f8 1c bc 3b 53 90 d3 bc
       -0.032993417 -0.026571238 0.005740758 -0.025825655
000040 aa 12 11 bd f1 c1 3b bc 9c 5d 4c bd 2d 87 08 bd
       -0.03541819 -0.011459813 -0.04989396 -0.03333204
000050 7b 39 21 bd 3c d8 4f bd 6d 02 96 bc 49 61 81 bd
       -0.03936146 -0.050743327 -0.018311704 -0.06317384
000060 b4 5d f4 bb 02 d3 24 bd 7d b2 2e 3c 82 31 95 bd
       -0.0074574593 -0.040240295 0.010662672 -0.072848335
000070 31 96 9a bd b5 c8 ba ba d6 57 e9 3b a6 da dd 3c
       -0.07548178 -0.0014250489 0.0071210666 0.027081799
000080 79 7c 30 bd a0 10 b4 3c a2 9e 27 bc 8b c1 b4 bb
       -0.043087456 0.021980584 -0.010230692 -0.005516236
000090 4e a3 4c bd 11 49 8c bd 01 54 65 bd 90 62 a3 3c
       -0.049960427 -0.06849874 -0.055988315 0.01994446
0000a0 81 16 96 bc 0a 4c 42 bc fa 61 08 bd aa 5a 1e bc
       -0.018321278 -0.011858949 -0.033296563 -0.009665171
0000b0 8a e1 1f bc 14 f3 03 bd 24 68 36 bd eb 7b 3a bd
       -0.009758363 -0.03221424 -0.04453291 -0.045528334
0000c0 83 fa 44 bd 1c 02 29 bd d3 2f bb bd 59 b5 1e 3d
       -0.04809047 -0.041261777 -0.09139981 0.038747165
0000d0 49 28 7e bc 7e 01 8e bb 20 c7 1c bd a6 ec 4c bd
       -0.015512534 -0.004333674 -0.038275838 -0.050030373
0000e0 ca 92 22 bd 32 62 56 3b 46 c7 2a bd da 5f 21 bd
       -0.03969077 0.0032712338 -0.04169395 -0.03939805
0000f0 2c 02 23 3b 8a d2 06 bd 62 d5 06 bd ae 7d bc bb
       0.002487312 -0.03291563 -0.03291834 -0.005752287

bn1.running_mean f4 [64]
000000 11 a8 2c bd d0 af f6 bc 17 cc 84 bc c2 b8 7c bc
       -0.042152468 -0.03011313 -0.016210599 -0.015424909
000010 a3 b9 3d 3d 2e 1a 3a bd 85 e4 79 3a 91 6c 93 bc
       0.046319615 -0.045435123 0.0009532648 -0.017996104
000020 8b 11 a0 bc f9 6d 24 bd 11 e1 df bc 56 78 45 3d
       -0.019539615 -0.04014394 -0.027329 0.048210464
000030 a6 67 f9 3c e5 57 a1 bc 06 fa 6f 3c 79 48 0b bd
       0.030444931 -0.019695232 0.014647013 -0.034004662
000040 b8 cc 0a bd e5 bb 36 3c b9 82 6c bc bb 70 5c bd
       -0.03388664 0.011153196 -0.014435464 -0.053818446
000050 40 14 ae bc 4a 39 ca 3c 6e 95 88 b7 d6 fe d2 3b
       -0.02124989 0.02468552 -1.6282047e-05 0.00643907
000060 1f bc fd bb 46 41 1e bc 51 19 cc 3b fa dd b0 bc
       -0.007743373 -0.009659117 0.006228604 -0.021590222
000070 cf 9e 38 bd 28 d9 1c 3d 69 a6 c6 3b 2d 28 3d 3c
       -0.045073327 0.038293034 0.006062318 0.011545223
000080 41 ee d5 3c db a1 2a bc ac bc ad bb f0 9f c6 bc
       0.026114585 -0.010414566 -0.0053020325 -0.024246186
000090 43 4c ac 3c f5 49 7f bd 4f 1d 85 bc 2b 0e 45 bd
       0.021032458 -0.06232639 -0.016249327 -0.048109215
0000a0 57 cd 80 bd 72 97 37 bc 5d 26 90 bc 7e 89 5a 3c
       -0.062891655 -0.011205541 -0.017596418 0.013338445
0000b0 96 14 d1 bc 0e f5 de bb ca e9 2d bc 2b ee c2 3c
       -0.025522511 -0.006804115 -0.010614822 0.023795208
0000c0 db 64 95 bb f7 35 d2 bc 26 d1 bc bc 7f 92 8c 3c
       -0.004559142 -0.025660498 -0.023048948 0.017159699
0000d0 82 f3 ba bb 1c 75 71 bc b8 c3 ed bc 2f 09 a7 3c
       -0.005705298 -0.014737394 -0.02902399 0.020390121
0000e0 92 b3 cd 3a 4e 64 32 bc dc 6e 89 3c 85 54 c3 bc
       0.0015693775 -0.010888172 0.016776495 -0.023844013
0000f0 7a f1 17 bd 41 70 62 bd 44 9e 54 3c f6 68 5d bd
       -0.037095524 -0.055282835 0.012977187 -0.054055177

bn1.running_var f4 [64]
000000 b8 95 8c 3b f1 33 e9 3b 8d af f3 3b e2 a1 d3 3b
       0.004290309 0.0071167876 0.007436699 0.006458507
000010 5e d4 1c 3c 65 a8 09 3c d1 f7 e6 3b 7b e4 b7 3b
       0.009572117 0.008401965 0.007048585 0.005611954
000020 ce f9 71 3c a9 f2 2d 3c fa d6 e4 3b d5 90 03 3c
       0.014769031 0.010616937 0.006983635 0.008030136
000030 e3 42 be 3b 03 3e dd 3b 1a 3b bf 3b 6b 9e 8b 3b
       0.0058063134 0.006751777 0.005835903 0.0042608283
000040 dd ab bc 3b 54 3e a7 3b af 8b bb 3b c0 fe a8 3b
       0.0057577924 0.0051038656 0.0057234387 0.0051573217
000050 e4 51 cd 3b 94 fb 75 3c 74 ce c0 3b c3 d0 9b 3b
       0.0062658656 0.015013594 0.005883986 0.004755111
000060 c0 31 99 3b 24 6d b2 3b 52 23 97 3b 81 03 c6 3b
       0.00467512 0.0054451395 0.004612365 0.006042898
000070 26 3a b6 3b 33 e4 a6 3b 33 53 57 3c 80 41 c9 3b
       0.005561131 0.0050931214 0.013142395 0.0061418414
000080 7d 10 53 3b 20 48 81 3b 57 f8 b4 3b f8 63 85 3b
       0.0032205873 0.0039453655 0.0055227685 0.004070755
000090 22 a4 8a 3b a8 dd 09 3c 0b 0e c5 3b 69 a3 b8 3b
       0.004230992 0.008414663 0.006013637 0.0056347144
0000a0 01 81 e9 3b 5e c9 df 3b 33 61 d2 3b b4 52 9c 3b
       0.007125974 0.0068294248 0.0064202785 0.004770601
0000b0 6a 78 1e 3c 1c 4f 8d 3b a5 ab 92 3b 48 c0 aa 3b
       0.009672264 0.004312409 0.004476028 0.00521091
0000c0 78 3a 98 3b b9 1b fb 3b 56 6d d0 3b ea 8c a1 3b
       0.004645642 0.007663217 0.00636069 0.0049301283
0000d0 19 e4 10 3c 45 20 6b 3b 29 2a 8e 3b 99 d9 4c 3b
       0.008843445 0.0035877388 0.004338522 0.0031257628
0000e0 fd 29 0f 3c f6 1c e9 3b d8 08 ea 3b cc 04 c4 3b
       0.008738038 0.007114048 0.0071421675 0.005982017
0000f0 c5 22 e3 3b 61 09 02 3c 05 63 88 3b 4d db ab 3b
       0.006931635 0.007936806 0.0041621947 0.0052446485

conv2.weight f4 [128, 64, 3, 3]
000000 48 f5 1d bd f3 bf 6c bc 1e b1 7e bc 02 ce b2 bc
       -0.038563997 -0.014450061 -0.015545158 -0.021826748
000010 ba af 84 bb f0 7b 5c bd 3f a5 05 3c ca 5e bc bc
       -0.0040492686 -0.053829134 0.0081570735 -0.022994418
000020 7e ff 89 3c 4c c5 74 3d ea 48 da 3b 4b 9e 05 3d
       0.016845461 0.05975847 0.006661524 0.032621663
000030 4e 4c f6 3c 33 fe 28 3c fe 8a cf 3c 8e 15 32 bb
       0.030065682 0.010314512 0.025334831 -0.0027173492
000040 ef c2 0c bd 9d 5b f7 3c fe f0 13 bd 07 95 2b bd
       -0.03436559 0.030195052 -0.0361185 -0.04189017
000050 08 f6 a9 3c e9 05 04 bd df 5b 5d bd a4 c5 75 bd
       0.0207472 -0.0322322 -0.054042693 -0.060002938
000060 11 23 81 bc 38 e8 62 bd 20 6e 98 bd 64 2e 1f bc
       -0.015763791 -0.055397242 -0.0744288 -0.00971565
000070 0e a2 25 ba 70 e1 c1 bb ba 2c 72 3c d9 70 15 3d
       -0.00063183985 -0.005916767 0.014781171 0.036484573
000080 be 6a 87 3c 1a 82 0f bc 47 92 97 39 63 ca 47 bc
       0.01653039 -0.008759046 0.0002890995 -0.012194249
000090 98 f7 9b 3c 7f e2 c8 ba f7 d8 e8 3c f3 60 93 bc
       0.01903896 -0.001532629 0.02842377 -0.017990565
0000a0 a7 0c 04 3c 0b 5a 22 bc 83 49 1b bb 0a 42 60 bb
       0.008059657 -0.009909163 -0.002369494 -0.003421905
0000b0 35 ac 46 bd 05 71 2b bb 51 5d 19 bd c6 e1 2e bd
       -0.048504073 -0.0026159894 -0.03744251 -0.042695783
0000c0 3f f0 37 bc b8 54 b8 bd ee 84 ae bd 87 7b 2f bc
       -0.011226713 -0.09000534 -0.08521448 -0.010710604
0000d0 a4 3e 37 bd f1 ba ae bc df 0f 07 3d d2 3f d6 bc
       -0.044737473 -0.021329375 0.03297412 -0.026153479
0000e0 e2 cf 16 3d ea 68 04 3d f0 4f d4 bc 1f 38 bb 3c
       0.036819346 0.032326616 -0.025917023 0.022853909
0000f0 da a7 27 3d 74 ef e1 3a 02 1e 9a bc c5 49 30 3d
       0.04093156 0.00172375 -0.018813137 0.043039102
000100 52 61 37 3c f5 b7 f0 3c e5 55 c6 3b 05 a7 c6 bc
       0.011192637 0.029384593 0.00605272 -0.024249563
000110 09 a1 51 3c 40 b6 16 bd ed e2 4c 3d 4d 26 7f 3d
       0.012794741 -0.0367949 0.0500211 0.062292386
000120 9f 09 d8 bc c4 7c dc bc 04 06 6a 3c a0 cc 37 bd
       -0.026371775 -0.026914962 0.014283661 -0.04487288
000130 4b ae f0 bc 0b c8 a1 bd 27 03 08 bd 2a 49 56 bd
       -0.029379984 -0.07899483 -0.03320613 -0.05231587
000140 80 ea 39 bd d3 e1 ad 3c 53 62 01 3c fa 38 33 3d
       -0.045389652 0.021225845 0.0078969775 0.04375551
000150 7c 2c e9 3c 20 36 17 3d fe 7c 05 3d 38 6b f0 3a
       0.028463595 0.036916852 0.032589905 0.00183425
000160 20 44 40 3d 80 73 8a bc 88 9c 41 3b da f7 88 bc
       0.04693997 -0.016900778 0.0029542763 -0.016719747
000170 66 e9 c6 bc e1 1f 3e bc dc 59 30 bc ec a4 2f bd
       -0.024281215 -0.01160428 -0.010763612 -0.04288189
000180 5c 4c 43 bd ab 6b 4d bd 64 d7 79 bd 96 9c 9d bb
       -0.047680244 -0.05015151 -0.060996428 -0.0048099263
000190 d2 5e 0b bd 84 c6 7b bc 68 5a 6c 3c 5b 71 15 bc
       -0.034025975 -0.015367154 0.014425851 -0.009121264
0001a0 2f 12 00 3c 24 8d 00 bc a6 cf 01 bd c7 ef 11 bd
       0.007816835 -0.007846151 -0.03169217 -0.03562906
0001b0 ae 19 b2 3c 79 c3 02 bd 56 d9 f8 3c 93 04 33 3d
       0.02174076 -0.0319247 0.030377071 0.043705534
0001c0 4c 4c 0f bc 8f 1b 37 bb f7 5b 2b 3d 6a 09 8b bc
       -0.008746218 -0.002794001 0.04183575 -0.016972262
0001d0 1c 52 e1 3c 57 61 87 bd e2 1b 37 bd 60 6b 4a 3b
       0.027504973 -0.06610363 -0.044704325 0.0030886754
0001e0 eb 8c bc bc 80 1b 93 bc 73 59 0e bd f1 34 9e bc
       -0.023016414 -0.017957449 -0.034753274 -0.019312354
0001f0 20 6e 82 bd 94 f7 9f bd 13 d4 32 bb da 36 11 bc
       -0.06368661 -0.07810894 -0.002728705 -0.008863175
000200 36 ef fa bc 65 ad 2b bd 06 83 43 3a 59 89 89 3c
       -0.030631643 -0.04191341 0.00074581837 0.016789125
000210 1c 6b 1d bd fa 1e 54 bd 53 8b 5d bd eb d0 d7 3c
       -0.038432226 -0.051787354 -0.054087948 0.026344737
000220 19 24 10 bd 68 77 77 bc ea e8 10 bd 20 8c 62 bd
       -0.035190675 -0.015104152 -0.035378374 -0.055309415
000230 f3 2d 55 3c c5 29 3e bd 37 a1 1c 3b e1 17 08 bd
       0.013011443 -0.046426553 0.0023899802 -0.033225898
000240 bb 9e 23 3c 5d bb 56 bd 47 55 80 bd 56 b3 94 3a
       0.009986575 -0.052424777 -0.06266265 0.001134495
000250 c6 31 dc bd e4 96 a5 bd 0b 6f b3 3c 35 71 85 bc
       -0.10751681 -0.08085421 0.021903535 -0.016289333
000260 13 18 12 bd 9c 8d 79 bc f7 f6 4e bd c7 ee c9 bc
       -0.03566749 -0.015231516 -0.050528493 -0.02464999
000270 2d 83 5c 3b d5 11 91 3c 1f 81 51 bd ba 2f b1 bc
       0.0033647523 0.017708698 -0.05114853 -0.021629203
000280 98 34 97 bd 53 55 22 bd 5f 64 f5 3c e5 f5 43 bd
       -0.07383078 -0.039632153 0.029955087 -0.047841925
000290 2a 80 67 3c cf e1 81 3c 65 8b 1a bc bb 2d bd 3c
       0.014129678 0.015854744 -0.009432648 0.023093095
0002a0 b0 7f 1a 3d b7 b6 c6 bc 93 ad 40 bd 99 b6 bc bc
       0.03771943 -0.024257047 -0.047040533 -0.023036288
0002b0 f6 f2 2e bc e1 71 67 3c a7 bf d7 bc f2 8e c8 bc
       -0.010678044 0.014126272 -0.026336504 -0.024482224
0002c0 66 ab 26 bd a5 86 28 bd 97 e4 34 bd 2b 6f c8 3c
       -0.040690802 -0.041144032 -0.044163313 0.024467072
0002d0 35 4b 86 bc c5 6f 28 bc e6 d8 5d bd 97 d9 18 3d
       -0.016393283 -0.010280554 -0.05416193 0.037316885
0002e0 6d 5e 7d 3a 91 7e 79 3b 85 57 c2 bc a9 04 19 3d
       0.00096652546 0.0038069824 -0.023723373 0.03735796
0002f0 38 11 05 bd 1c 63 8c 3c 5b e4 0f 3d 85 72 a3 bc
       -0.032487124 0.017137103 0.035129886 -0.019952068
000300 36 0a 8b bc 23 47 ae bc 45 f8 99 bc 67 c8 c4 3c
       -0.016972642 -0.021274155 -0.018795142 0.02402134
000310 e6 93 14 bd fe 43 db 3c 41 7f ea 3c 77 6b 5d 3d
       -0.03627386 0.02676582 0.028625133 0.054057565
000320 08 91 d8 bb 92 28 14 bc 6b ab d1 3c 74 83 46 3d
       -0.006609086 -0.009042876 0.025594434 0.048465207
000330 36 07 db 3c 3c f1 4f bc 64 ab 02 3d 57 f5 c7 bc
       0.026736837 -0.012691792 0.031901732 -0.02440898
000340 27 3a 7e bd 10 92 30 bd f5 25 b9 bd 87 12 f8 bc
       -0.062067177 -0.043108046 -0.09040443 -0.030282272
000350 89 08 7f bd b7 b8 d6 3a 47 32 b3 bd 87 ea 33 bd
       -0.062264 0.0016381954 -0.08749824 -0.043924835
000360 1e 3e af bd fb 09 23 bd ee e3 e7 3c fb 41 6d bd
       -0.0855677 -0.03980444 0.028306928 -0.057924252
000370 79 49 a6 bd 7b 69 07 bc d8 33 a2 bc 0b 0a d5 bb
       -0.081194825 -0.008264895 -0.019800112 -0.0065014414
000380 c3 1f 44 bc bd 56 32 3c 24 72 8f 3c b2 f5 40 3d
       -0.011970463 0.010884938 0.017510481 0.047109313
000390 85 b5 ea ba 08 ce 96 3c 28 09 7c 3c 25 7b a5 3c
       -0.001790688 0.01840879 0.015383042 0.020200321
0003a0 16 3c c2 3c c3 0d a5 ba 94 a3 9e 3c 63 2f 75 3c
       0.023710292 -0.0012592602 0.01936511 0.014964911
0003b0 7e 05 89 3d e3 a0 43 3d b3 f7 5e 3c 83 26 19 bc
       0.06690501 0.047760855 0.013608861 -0.009347561
0003c0 be ab 91 bb 21 81 5d 3d 5d 23 db bc bd 30 f8 bc
       -0.004445522 0.054078225 -0.026750261 -0.030296678
0003d0 63 cd b2 3a 2e 75 1a ba 65 8b 27 bd 1f 54 5e bd
       0.0013641532 -0.0005892095 -0.04090442 -0.054279443
0003e0 28 e4 08 bd 0d 2a 5a bd c7 09 e5 bc 9b 37 2d bd
       -0.03342071 -0.05326276 -0.027958764 -0.042289358
0003f0 2e ba ea bc ed fa 6f bd 0a fc b5 3b a7 a4 3d bc
       -0.02865323 -0.05858891 0.005553727 -0.011574901

conv2.bias f4 [128]
000000 a5 bc c8 b9 5d 63 c9 39 ee ee 83 3b 07 17 4a 3b
       -0.00038287524 0.0003841174 0.0040262854 0.003083648
000010 79 4c 34 b9 f9 9b cc ba e4 5d a3 3a 7a 13 22 3b
       -0.00017194626 -0.0015610448 0.0012463895 0.0024730847
000020 74 a4 e8 b9 de c8 92 b9 e0 cd df ba fc 3e fc 37
       -0.00044373015 -0.00027996948 -0.0017074905 3.007007e-05
000030 3f 56 b2 39 2d d3 aa b9 05 3d 2d ba 0f 1c 67 3b
       0.00034015064 -0.00032582265 -0.0006608519 0.0035264527
000040 3b 9b 5d 3a 04 fd 44 3b 66 b4 7c 3b fe f6 68 3a
       0.0008453612 0.0030058036 0.0038559674 0.00088869024
000050 92 50 3a b9 2d fd 77 ba 10 fe 01 ba 8b 16 de 38
       -0.00017768357 -0.00094600284 -0.0004958818 0.00010589984
000060 f9 22 09 bb 67 0f 64 3a 67 3b 01 b8 5d d4 a7 39
       -0.0020925386 0.0008699805 -3.081132e-05 0.00032010945
000070 58 1d c0 ba 9e e8 9b 38 b6 31 8c 3b 1b a5 65 b9
       -0.0014657183 7.434304e-05 0.004278387 -0.00021900648
000080 7e 9f 28 3a d6 86 46 ba 6c df 1b 38 cd 71 b4 39
       0.00064324576 -0.00075731927 3.7162958e-05 0.00034417064
000090 1a c8 1e b9 9f ec 97 39 63 cd 57 3b 25 5b 20 38
       -0.00015142598 0.0002897726 0.0032928817 3.8231858e-05
0000a0 a0 67 90 b9 e9 91 d5 ba 14 0d 0e 39 b6 44 d8 3b
       -0.00027543027 -0.0016294095 0.00013547047 0.006599988
0000b0 a5 96 ac ba bc f6 ad 39 a6 9b 36 bb 7f d9 3b ba
       -0.0013167454 0.00033180963 -0.002786377 -0.00071658933
0000c0 53 7f ac 3a be 48 fa b8 a7 b4 9e b9 1e 2b 9c 3b
       0.0013160504 -0.00011934478 -0.00030270705 0.004765882
0000d0 e9 b2 09 3c da cd 5a 3b c7 c2 2e ba 67 d3 01 ba
       0.008404472 0.0033386857 -0.00066665973 -0.0004952461
0000e0 ce ff b5 b9 e7 ed 1b 39 c1 3d 89 ba b2 61 cb b9
       -0.000347136 0.00014870577 -0.0010470675 -0.00038791966
0000f0 31 76 e0 b9 3e 86 8b ba 3c 1f ea 39 01 9e c5 38
       -0.0004281267 -0.0010644866 0.0004465523 9.4231225e-05
000100 45 bd 13 3a e8 38 83 b9 b1 3b bd 37 82 3d 38 3a
       0.00056358083 -0.00025028666 2.2558352e-05 0.00070282083
000110 8d db 2d 3a 10 43 62 3a 78 a2 17 b9 53 cc 2e 3b
       0.0006632142 0.0008631209 -0.00014461007 0.002667208
000120 3b e6 e1 3a 63 21 4d 3a bc 87 16 3a 51 31 1b bb
       0.0017234752 0.00078251044 0.0005742272 -0.0023680518
000130 4f 6b 53 ba a4 2e 3a 3b 97 59 69 39 ee 94 80 3b
       -0.00080650015 0.0028409148 0.00022253986 0.003924004
000140 0d b9 ac 3a 8b d8 87 ba 7b 28 76 3a bf 91 9f bb
       0.0013177708 -0.0010364217 0.00093901873 -0.004869669
000150 ed 5d 88 b9 69 82 52 39 7e 49 36 39 52 f2 c1 39
       -0.00026009922 0.00020075742 0.0001738425 0.0003699237
000160 45 a8 3c 3a 3e 6f 9f b9 59 3f 7f 3b 91 6f aa b8
       0.0007196705 -0.00030409725 0.003894767 -8.1270126e-05
000170 c8 9d d2 39 a2 f7 14 39 b6 e3 ae ba 90 c6 87 3a
       0.00040171877 0.0001420663 -0.001334301 0.0010358859
000180 47 27 a0 ba 9b b2 39 ba 64 85 06 ba bb b7 1b 3a
       -0.0012218737 -0.0007083804 -0.0005131571 0.0005940159
000190 b5 69 9d bb fe 69 40 3a c9 1c 9b b8 9d b3 9c b8
       -0.004803861 0.0007340013 -7.3963376e-05 -7.472115e-05
0001a0 e9 89 87 39 fb 1f 12 3a 10 8f df b8 d1 54 6b 3a
       0.00025851958 0.00055742235 -0.00010660116 0.0008977177
0001b0 32 01 47 39 5b 45 a0 ba 66 3d 5b 39 0a c3 74 ba
       0.00018978564 -0.0012227701 0.0002090834 -0.00093369244
0001c0 c2 77 97 b9 ed 11 80 ba d2 b9 00 39 87 5f d8 ba
       -0.0002889019 -0.0009770967 0.00012276255 -0.0016507962
0001d0 14 1d 01 3b 32 36 60 3a 82 c2 d7 39 ea f6 df ba
       0.001970117 0.00085529976 0.00041152915 -0.0017087136
0001e0 77 c3 a8 ba 05 fa a6 3b 1d b1 51 b9 3d c6 4d ba
       -0.0012875636 0.0050957226 -0.00019997773 -0.0007849669
0001f0 63 ab fd ba 4b 93 9d b9 c5 9f 58 3a 4e 64 c0 3b
       -0.0019353445 -0.00030055115 0.00082635536 0.0058713323

bn2.weight f4 [128]
000000 49 69 8a 3f 44 1a 8a 3f a7 f2 87 3f e5 7c 86 3f
       1.081338 1.0789266 1.0620927 1.0506865
000010 13 a7 88 3f 2b b2 88 3f 75 86 81 3f 2c 13 86 3f
       1.0675987 1.0679373 1.0119158 1.0474601
000020 b0 fc 8a 3f cc 32 86 3f b8 9e 87 3f 45 49 83 3f
       1.0858364 1.0484252 1.0595312 1.0256735
000030 d0 11 85 3f d1 f7 8d 3f d3 ee 85 3f df ea 86 3f
       1.0396061 1.1091253 1.0463508 1.0540427
000040 71 db 81 3f 31 85 88 3f 44 66 87 3f 0a 93 82 3f
       1.0145093 1.0665647 1.0578084 1.0201123
000050 14 c4 86 3f d4 a1 88 3f 8c be 87 3f 27 7f 87 3f
       1.0528588 1.0674386 1.0605025 1.0585679
000060 65 85 87 3f 56 12 88 3f 28 d9 85 3f 29 84 80 3f
       1.0587584 1.0630596 1.0456896 1.0040332
000070 8d 0b 85 3f cb 7b 80 3f 84 a6 86 3f 44 98 85 3f
       1.039415 1.0037779 1.0519567 1.0437093
000080 21 d7 88 3f 7f c8 84 3f c2 da 87 3f b0 01 8a 3f
       1.0690652 1.0373687 1.0613635 1.0781765
000090 21 b7 7e 3f c4 3e 87 3f 69 ca 85 3f 14 9b 84 3f
       0.9949818 1.056603 1.0452396 1.0359826
0000a0 ab 08 88 3f e8 73 84 3f 43 79 86 3f f8 9e 89 3f
       1.0627645 1.0347872 1.0505756 1.0751638
0000b0 8c 41 8c 3f db 50 89 3f 84 39 82 3f 60 54 85 3f
       1.0957503 1.07278 1.0173802 1.0416374
0000c0 a5 43 87 3f bc 88 84 3f 34 c3 77 3f c9 3a 87 3f
       1.0567518 1.0354228 0.9678223 1.0564815
0000d0 26 20 89 3f 1e db 89 3f 9e 3d 87 3f fe f1 85 3f
       1.0712936 1.0769994 1.0565679 1.0464475
0000e0 7c d8 83 3f fb 4a 8b 3f 98 e3 87 3f a3 83 86 3f
       1.0300441 1.0882257 1.0616331 1.0508922
0000f0 e8 57 84 3f 49 67 88 3f 19 d7 88 3f 70 96 8a 3f
       1.0339327 1.065652 1.0690643 1.082716
000100 6e df 86 3f f3 87 86 3f e2 b6 86 3f df 76 88 3f
       1.0536935 1.0510238 1.0524561 1.0661277
000110 8f 9b 87 3f 16 6c 86 3f bd 21 86 3f f6 8d 87 3f
       1.0594348 1.0501735 1.0479046 1.0590198
000120 b6 c2 82 3f b3 66 84 3f ff a1 88 3f 70 c0 87 3f
       1.0215671 1.0343841 1.0674437 1.0605602
000130 86 e1 85 3f d3 20 87 3f 90 b5 8c 3f 25 5a 84 3f
       1.0459449 1.0556892 1.0992908 1.034001
000140 71 98 85 3f ad 23 86 3f c9 76 86 3f bb d4 8c 3f
       1.0437146 1.0479637 1.0505 1.100242
000150 d8 a6 88 3f 21 18 87 3f e4 71 85 3f cc 88 86 3f
       1.0675917 1.0554239 1.0425382 1.0510497
000160 f1 aa 86 3f 20 42 86 3f 07 6c 87 3f 13 c7 85 3f
       1.0520917 1.048893 1.0579842 1.0451378
000170 b2 a5 84 3f 97 59 86 3f ee 74 8b 3f 7f 2d 83 3f
       1.0363066 1.0496091 1.0895059 1.0248259
000180 ed f7 88 3f 27 cc 85 3f 6c f2 86 3f 61 4a 87 3f
       1.0700661 1.0452927 1.0542731 1.0569574
000190 8f 51 7e 3f 30 36 86 3f 6f 96 86 3f f8 ca 8a 3f
       0.993432 1.0485287 1.0514659 1.0843191
0001a0 7f 7b 88 3f 8a c7 87 3f 51 95 83 3f cd 69 85 3f
       1.0662688 1.060777 1.0279943 1.0422913
0001b0 55 81 8b 3f e7 63 86 3f 37 b5 88 3f 86 15 86 3f
       1.0898844 1.0499238 1.0680302 1.0475318
0001c0 35 d6 89 3f 79 17 88 3f e2 f2 88 3f 56 80 87 3f
       1.0768496 1.0632163 1.0699122 1.058604
0001d0 43 d8 86 3f e5 ab 84 3f 9b 76 86 3f f0 61 89 3f
       1.0534748 1.0364958 1.0504946 1.0733013
0001e0 87 27 8b 3f 3b 39 85 3f 39 00 85 3f fe 6c 89 3f
       1.0871438 1.040809 1.0390693 1.0736387
0001f0 e7 d8 80 3f d9 2f 87 3f ec 26 83 3f 6c ce 88 3f
       1.0066193 1.0561477 1.0246253 1.0687995

bn2.bias f4 [128]
000000 c5 e4 cf 3d 98 4b 25 3d a6 cb 30 bd 9c 49 a0 bd
       0.10151056 0.040355295 -0.043162964 -0.0782654
000010 b4 37 89 3d e8 1b c6 3c 09 ab 33 bd ca 6f 08 bd
       0.06700078 0.024183229 -0.043864284 -0.033309735
000020 3f dc c9 bb 98 62 99 ba 11 c9 96 3d f7 97 08 bd
       -0.0061602886 -0.0011702357 0.07362569 -0.03334805
000030 f1 01 1f bd 51 09 c0 3d 74 c5 8b 3c 71 a6 84 bd
       -0.03882021 0.09376777 0.017061926 -0.06477059
000040 3c c0 6e bd 25 9a 18 bd 0a 9d 22 bd 64 27 9e bc
       -0.058288798 -0.03725638 -0.039700545 -0.019305892
000050 e5 37 55 3d 01 76 7c 3d 94 a8 6c bc 2b a7 5d 3d
       0.05205526 0.061635975 -0.014444489 0.054114502
000060 43 5c 92 3c 84 10 29 3d 6e 76 2f 3b 75 ca 58 bd
       0.01786626 0.041275516 0.002677347 -0.052927453
000070 af b7 d7 bc 97 67 3d bd dc 55 cb bc 23 a6 07 3d
       -0.026332704 -0.04624137 -0.024821214 0.033117425
000080 bb 13 3d 3d 08 cb de 3b 1b 3c da 3d 8f 0c bf 3d
       0.046161395 0.0067991056 0.106559955 0.09328567
000090 f0 d1 a7 bb 5e c1 86 3d c9 1e 65 3c 8b c0 c3 3c
       -0.005121462 0.065798506 0.013984391 0.023895523
0000a0 11 94 15 3d 39 1a 49 3d 6c a4 88 3d 09 95 ad bc
       0.03651816 0.049097273 0.06671986 -0.02118923
0000b0 73 06 a7 3d 63 68 98 3d 2e bd ae bc 5c d4 b6 3b
       0.08155527 0.07441785 -0.021330442 0.0055795144
0000c0 b7 31 18 3d 5a 50 4b 3d 13 9b dd bc 94 d8 1a bd
       0.037156787 0.049637176 -0.027051484 -0.0378042
0000d0 ca eb f6 bc e0 90 2c bd 1b 6a 91 3d b6 82 9c 3d
       -0.03014173 -0.04213035 0.07100316 0.07642119
0000e0 b3 5a 20 bd 4f 6c 8d 3d 62 24 1b bb 5d 80 57 3c
       -0.039148998 0.06905424 -0.002367281 0.013153163
0000f0 47 73 41 bc 95 be a9 3d 83 22 2d ba 1b cb b3 3d
       -0.011807269 0.08288304 -0.0006604569 0.08778974
000100 ee 15 81 3d 0c 72 83 3d ed dc 55 3d ad 45 34 3a
       0.06303011 0.06418237 0.052212644 0.00068768376
000110 15 25 1f bd e6 2e 81 3d 11 7e 8a 3d 76 27 ed bc
       -0.038853724 0.06307773 0.067623265 -0.02894948
000120 27 10 80 3b 5d b3 c2 bb 59 3a 28 bd fe 05 5d 3d
       0.0039081755 -0.005941792 -0.04107127 0.053960793
000130 ec c7 35 bd 24 ac 28 bd 29 33 b0 3d c6 b9 13 3d
       -0.044380113 -0.04117979 0.08603508 0.03606584
000140 f8 39 29 bd 2a fd 11 3d 55 0f 7e bb 7c 14 98 bc
       -0.04131505 0.035641827 -0.0038766463 -0.018564455
000150 67 6b 76 3d c4 ec fa 3c 9c 8d a6 3c 26 7b 0a 3d
       0.06016102 0.030630477 0.020331196 0.03380885
000160 aa c3 08 3d 4f b5 49 bd c7 d4 56 bd 17 fd 56 3c
       0.033389725 -0.049245175 -0.052449014 0.013121865
000170 e0 e4 78 bc 8e 29 e2 3c 29 17 a0 3d 56 6c 7f bc
       -0.015191287 0.027607705 0.078169174 -0.015589794
000180 a4 7f 7c 3d 18 69 e5 3c c8 6b 4d 3d 7d 91 08 3d
       0.061645165 0.028004214 0.050151616 0.033341873
000190 d1 06 c3 bc 27 49 cd 3c b1 88 30 3d c4 2b 4a 3d
       -0.023806961 0.025059296 0.04309911 0.049358144
0001a0 e9 97 99 3d b9 62 a9 3d e2 81 8c bc f8 02 62 bd
       0.07499678 0.08270783 -0.017151777 -0.055178612
0001b0 d0 6d bf 3d 0e 82 81 3d 6d d5 5f 3d 95 c5 62 3d
       0.09347117 0.06323634 0.054646898 0.05536421
0001c0 16 18 3f 3d 16 0e c4 3d c4 2f 30 3d 1e a1 54 3d
       0.04665383 0.09572999 0.043014303 0.051911466
0001d0 20 6b 0f bd d3 84 dc 3b cb cc 17 bd e3 53 cf 3d
       -0.03501427 0.006729701 -0.03706054 0.10123422
0001e0 ce 74 ba 3d 27 9d 4f bd f0 78 19 3d 51 75 95 bc
       0.0910431 -0.05068698 0.03746885 -0.018244417
0001f0 16 52 4b bd 59 6b 70 3d a9 a1 09 bd 87 cd 26 bd
       -0.04963883 0.058696125 -0.033601437 -0.04072335

bn2.running_mean f4 [128]
000000 27 5c 73 bf 17 78 76 3f e7 84 4b 3e 52 02 5d 3d
       -0.9506249 0.9627699 0.19874917 0.05395729
000010 da 3e 37 bf 5e 13 a3 bd 6f 1d 39 bf 63 b1 08 3f
       -0.7158028 -0.079626784 -0.7231054 0.5339567
000020 1e 86 aa 3e b1 c9 8f 3f b8 ab 52 bf 1a df fa 3e
       0.33305448 1.1233426 -0.8229327 0.48998338
000030 ee 5f 08 3f 50 ad 42 bf 99 e2 d6 3f eb 9a 73 3e
       0.5327138 -0.76045704 1.6787902 0.23789565
000040 c3 dd 8d 3e d4 41 60 3e c6 d2 53 3f 98 e1 34 bf
       0.27708253 0.21900111 0.8274349 -0.7065673
000050 50 96 91 3f 86 c1 6f bf 40 c8 47 3f 02 c4 67 3f
       1.1373997 -0.9365467 0.7803993 0.9053346
000060 f0 7b 2e bf be 2f 97 3f be 9b 39 3f d7 df 82 bf
       -0.68157864 1.1811445 0.7250327 -1.022456
000070 6f 3e 81 bf 88 9b f2 3e 7e 58 9e 3e 3f 02 8c 3f
       -1.0097178 0.47384286 0.3092689 1.0938185
000080 92 81 fa be 00 3c 08 3f 57 d8 82 bf cd c3 5b 3e
       -0.4892698 0.5321655 -1.0222272 0.21461411
000090 0f 51 9f bf 8c c3 b5 3f 1c 96 90 3e 85 07 d8 3e
       -1.2446612 1.4200301 0.28239524 0.42193237
0000a0 06 61 a0 3f 17 15 5a bf d2 d7 8e 3f 9d e2 9b 3e
       1.2529609 -0.8518843 1.1159613 0.3044633
0000b0 67 50 2e bf 87 ef 48 bf c1 28 f0 bd ec 52 9b 3f
       -0.68091434 -0.7849049 -0.11726523 1.2134681
0000c0 7f cc 9a 3e a5 d4 bb 3f 25 02 18 3f ad 34 1d 3f
       0.30234143 1.4674269 0.5937827 0.614085
0000d0 59 5c 5c 3e 9b 8b c5 3e 88 13 23 bf 01 11 1c bf
       0.21519603 0.38583073 -0.6370168 -0.60963446
0000e0 35 a7 83 bf 50 00 57 3f 83 3d 7f 3f 4b b2 de 3e
       -1.0285403 0.8398485 0.99703234 0.43495402
0000f0 0c dd ef 3d be 5f a1 3f e6 0f 95 3f c0 f8 a6 bf
       0.11712083 1.2607343 1.1645477 -1.3044662
000100 49 8a 64 bf 6d 2a bc 3f 25 ed 47 3f 60 31 dd 3e
       -0.89273506 1.4700447 0.7809623 0.43201733
000110 7d 79 ab 3e 8f 13 84 3f d8 44 8d 3f 46 01 cf 3e
       0.33491126 1.0318469 1.1036634 0.4043066
000120 a9 6e 0f bf b9 90 46 3f 38 41 dc 3d 2a cf 36 bf
       -0.5602823 0.7756458 0.10754627 -0.7140986
000130 b0 6d 07 3e 0d 67 a2 be 59 8d 6e bf 6b a6 40 3f
       0.13225436 -0.31719247 -0.9318443 0.75253934
000140 6e a1 ca 3e 45 3d 15 bf 3e c2 71 3f ad f4 f5 be
       0.39576286 -0.58296615 0.94437015 -0.48038235
000150 7c 4c 8f 3f 17 69 3c bf c6 a7 24 3f e9 60 b5 3f
       1.1195216 -0.73597854 0.643185 1.41702
000160 ed ee 95 3f 1c 92 56 3e 30 00 77 3e 87 fc be 3f
       1.1713539 0.20954174 0.24121165 1.4920815
000170 8c 7e d3 3e 78 44 68 3f bd 29 7e be a7 8b d3 3e
       0.41307485 0.90729475 -0.2482061 0.41317484
000180 ea 51 89 bf 61 26 f0 3d 52 b0 38 3f 72 6b 32 3f
       -1.0728123 0.1172607 0.72144043 0.696952
000190 58 3b 67 be d2 76 ee 3d 06 72 6d bf e1 0b 14 bf
       -0.22581232 0.11643757 -0.9275211 -0.57830626
0001a0 33 4e bf 3f 70 36 2c bf da 66 25 3f 6a 0e c5 3e
       1.494574 -0.67270565 0.64610064 0.3848756
0001b0 bc 26 9c bf 9b 88 bf bf 18 77 a2 3f 2c 4c 64 bf
       -1.2199321 -1.4963564 1.2692595 -0.8917873
0001c0 f7 e4 1a 3f 2f 99 68 bf 3d 9c 88 3f 11 1b d6 be
       0.6050562 -0.9085874 1.067268 -0.41817525
0001d0 c9 f9 b9 3e 7e a7 56 bf 42 7a be 3e db 02 1b bf
       0.36323383 -0.8384932 0.3720265 -0.6055123
0001e0 4b 47 0d bf f4 2d e7 3e aa e0 b3 bf 72 c6 ed 3d
       -0.5518691 0.45152247 -1.4052937 0.11610116
0001f0 f6 93 15 be ec 49 8d bf 41 43 07 3f 50 44 b3 3e
       -0.14607224 -1.1038184 0.52836996 0.35013056

bn2.running_var f4 [128]
000000 93 ac a8 3f 15 e8 d1 3f 6e 7c 90 3e 97 c5 85 3e
       1.3177665 1.6398951 0.28219932 0.26127312
000010 ad ef d6 3e 02 92 d2 3e b4 7d 93 3f 36 f6 ec 3e
       0.41979733 0.4112702 1.1522737 0.46281594
000020 49 c3 cb 3e e5 27 d8 3f 31 d6 93 3f b6 eb cd 3e
       0.39797428 1.6887175 1.1549741 0.40218896
000030 50 36 b8 3e 1c cd 8f 3f b4 58 23 40 94 ab 2c 3e
       0.35978937 1.123447 2.552289 0.16862327
000040 9a cc bf 3e 66 a6 bf 3e 71 1f 6e 3f db 83 8e 3f
       0.37460786 0.3743164 0.93016726 1.1133989
000050 c6 9d cc 3f 28 e7 71 3f 61 24 b4 3f 96 35 b6 3f
       1.5985649 0.9449334 1.4073602 1.4235103
000060 a0 5d ed 3e 75 5f b6 3f 1a 20 97 3f 8c ee e6 3f
       0.46360493 1.4247881 1.1806672 1.8041549
000070 3b ff aa 3f e6 a1 86 3f 9e 3c e1 3e 79 04 98 3f
       1.335914 1.0518157 0.4399156 1.1876365
000080 13 75 32 3f 3d 66 e1 3e 22 b9 62 3f c8 3d cd 3e
       0.6970989 0.44023314 0.8856374 0.40086198
000090 6e 66 cb 3f b7 6f 1e 40 84 ba 68 3e a4 19 a2 3e
       1.5890634 2.4755685 0.227274 0.31660187
0000a0 3b 5e 04 40 99 af 3d 3f 25 53 d8 3f ee e6 bb 3e
       2.0682514 0.74096066 1.6900374 0.36699623
0000b0 f0 c3 6a 3f 90 40 79 3f 0e cc b2 3e f4 64 cc 3f
       0.91705227 0.9736414 0.34921306 1.5968308
0000c0 43 8c 81 3e ee 97 cf 3f 71 90 2e 3f 94 69 ba 3e
       0.25302324 1.621824 0.6818915 0.36408675
0000d0 dd cb 86 3e 08 67 c0 3e f0 96 87 3f 0a 24 24 3f
       0.2632741 0.37578607 1.0592937 0.6411749
0000e0 f6 6f da 3f 7b b1 b6 3f 19 dd 7d 3f 9a bb 45 3f
       1.7065418 1.4272913 0.99165493 0.7723938
0000f0 e2 2a 81 3e 8c 72 c0 3f ab 0e d6 3f e7 17 a2 3f
       0.2522803 1.5034957 1.6723226 1.2663544
000100 8c 45 85 3f b9 22 18 40 a1 6a a4 3f 4a e3 dd 3e
       1.0411849 2.3771193 1.284504 0.4333747
000110 43 89 3d 3e 30 ac b2 3f af 03 bc 3f d0 ff bb 3e
       0.18509392 1.3958797 1.4688624 0.36718607
000120 fa 0f 2d 3f 2d 68 f5 3e 21 c3 92 3e 9e fe 03 3f
       0.67602503 0.47931042 0.28664497 0.5156039
000130 63 d1 55 3e 53 85 54 3f a3 c2 cf 3f db 0c 0b 3f
       0.20880656 0.83015937 1.6231273 0.5431649
000140 56 23 a8 3e 7a 85 44 3f 1d 12 ac 3f 42 04 6b 3f
       0.3283946 0.7676617 1.3443028 0.9180337
000150 df 87 df 3f 17 9d 48 3f c6 83 26 3f 73 bf 2f 40
       1.746334 0.783647 0.6504482 2.7460601
000160 a8 35 db 3f fa 36 67 3e d2 17 49 3e cb 01 0a 40
       1.712575 0.22579566 0.19637993 2.1563594
000170 49 cb eb 3e a2 98 fa 3f 8e 83 11 3f 98 bb ca 3e
       0.46053532 1.957783 0.5684136 0.39596248
000180 e3 2d 58 3f ac e1 e9 3e 01 7d 49 3f df 84 c6 3f
       0.8444502 0.45679986 0.78706366 1.5509299
000190 88 95 09 3f 83 dd b9 3e f6 62 7b 3f 74 a8 80 3e
       0.5374379 0.36301813 0.9819788 0.2512852
0001a0 05 ee 3c 40 52 2b 09 3f 46 45 94 3e 27 78 56 3e
       2.9520276 0.53581727 0.289591 0.20944272
0001b0 84 93 8a 3f 86 f3 fe 3f ae c0 14 40 45 0b bb 3f
       1.0826268 1.9918067 2.3242602 1.4612814
0001c0 71 50 2b 3f e5 04 4a 3f 4a 32 fb 3f c6 be b0 3e
       0.6691962 0.7891372 1.9624722 0.3452055
0001d0 57 7b fa 3e ab 1d b6 3f 1b 24 96 3e fc 7b 9f 3e
       0.48922226 1.4227804 0.2932442 0.3114928
0001e0 b2 15 b1 3e 7a 42 9e 3e 4d fb ef 3f e6 97 36 3e
       0.34586865 0.30910093 1.8748566 0.17831382
0001f0 81 fe aa 3e b4 33 77 3f a8 6b c2 3e e2 fb 82 3e
       0.33397296 0.9656327 0.3797276 0.25582796

fc1.weight f4 [256, 128]
000000 18 39 d3 3c fd 15 12 3d 04 11 1e 3e 6a 3a d1 3d
       0.02578406 0.0356655 0.15436178 0.1021622
000010 94 b6 8f 3c 50 26 45 bd c3 01 1e bd 5c 45 06 3e
       0.017543115 -0.04813224 -0.0385759 0.13112396
000020 94 2f 34 3d 3b c4 21 3b 97 e9 87 3c 02 1a f8 3d
       0.043990687 0.0024683613 0.016590877 0.121143356
000030 e8 c6 1a 3d 74 9d 86 3d a5 d5 13 3d 08 55 19 3e
       0.037787348 0.065730006 0.03609242 0.14973843
000040 1c 39 77 3d 98 4c 2b 3d 2d ad 49 3c d1 57 22 3c
       0.060357198 0.041821092 0.012309355 0.009908632
000050 44 da 54 bd 13 4a 9a bd 81 2d 22 3d 0a 2f 88 3d
       -0.051965967 -0.0753366 0.039594177 0.06649597
000060 20 58 4c 3d 8d d5 32 bd e9 6e 15 3c 3f 16 27 bd
       0.04988873 -0.04366069 0.009120681 -0.0407927
000070 c1 cb 9f 3d 5a 27 7a bc 06 60 bf 3d 0d 6a 78 3c
       0.07802535 -0.015268171 0.09344487 0.015162003
000080 86 86 52 bd db ae df 3b 7c f3 7e 3d 2f 48 49 bc
       -0.051397823 0.0068262643 0.062243924 -0.012285276
000090 6f 5c d2 3d cc 45 29 bd eb d5 a4 3d f8 70 fb 3c
       0.102715366 -0.04132633 0.08048614 0.030693516
0000a0 e5 fe 59 bd c0 fa 34 bd 88 bf 01 bd 77 52 21 3e
       -0.053221602 -0.044184446 -0.0316768 0.15754114
0000b0 92 c0 c6 3d e2 8e 13 3d 57 68 e0 3d b8 70 f6 ba
       0.097046986 0.036024936 0.10957401 -0.0018801903
0000c0 ca 7f 49 3d 73 23 3c bc 38 27 26 bd 51 19 10 3c
       0.049194135 -0.011483061 -0.040564746 0.008795098
0000d0 45 54 83 3d b1 5c 22 3e f0 a4 c3 3d f5 f7 91 3d
       0.064125575 0.15855671 0.09552944 0.07127372
0000e0 2b 5d 03 3e b5 65 35 3d 3b 78 4a 3c 02 d3 9f 3c
       0.1282851 0.04428645 0.012357767 0.019509796
0000f0 2d 14 93 3c 42 0e 5c bd 93 67 94 3d 8d 3b 15 bd
       0.017953956 -0.053724535 0.07246318 -0.036433745
000100 7e dc b1 3d 11 08 f7 3c 3f 2d b5 3d ce d2 cf 3d
       0.08684634 0.030155214 0.08846521 0.1014763
000110 d0 ae d1 3d eb 3b 89 3d 6a c2 85 bd 2d d9 70 3d
       0.10238421 0.067008816 -0.06531222 0.058800865
000120 af d6 01 3d 44 41 b1 3d bf 82 2d 3d 28 7a e2 bc
       0.03169888 0.086550266 0.042361017 -0.02764614
000130 6b 2b 8b 3d e7 ac b4 38 ba 5c 67 bd c9 01 34 3d
       0.06795391 8.6152744e-05 -0.056484915 0.043947015
000140 1e 52 73 bc 32 93 f6 bc 90 de ad 3d 77 28 06 3e
       -0.014851121 -0.030099485 0.08489716 0.13101374
000150 e2 17 88 3d de 05 19 3c d7 33 a3 bc c5 7e 0b bd
       0.0664518 0.009339778 -0.01992218 -0.034056444
000160 65 78 b5 3c 31 10 e5 3d d0 35 98 3d 53 57 07 3a
       0.022152135 0.11184729 0.07432139 0.00051628536
000170 10 5e fe 3d bb 12 36 bc e0 cf 47 3c d2 29 e5 3d
       0.12420285 -0.011112864 0.012195557 0.11189617
000180 e1 c4 7c 3d c6 c4 85 3c ad b8 6d 3d 0a 49 2f 3d
       0.061711196 0.01632918 0.05803745 0.042794265
000190 d1 18 3c 3d 8d 93 83 bd 28 cd 45 bc 3b dd e2 3c
       0.045922104 -0.064246275 -0.012072839 0.027693382
0001a0 be 33 46 bd df 85 58 3d a3 19 b9 3d cc 2e 89 3d
       -0.04838919 0.052862044 0.09038093 0.06698379
0001b0 67 59 0b bd b4 16 65 3d 99 d7 84 3b 41 e9 0d 3d
       -0.034020808 0.055929855 0.0040540216 0.034646276
0001c0 d5 d3 6b bd df ec 2e 3d a3 8f c4 3d e1 9c 62 3d
       -0.057575066 0.042706367 0.09597709 0.055325393
0001d0 2f ab e2 3c c7 a8 79 bb 02 4b c3 3d 01 11 6e bd
       0.027669517 -0.0038094984 0.09535791 -0.058121685
0001e0 f9 73 a0 bd 20 f9 83 3c 01 21 39 bd d3 49 fb 3d
       -0.0783462 0.016110003 -0.04519749 0.1226994
0001f0 79 2d 71 3d 51 b4 92 bd 8c 04 a5 3d 13 74 ea 3c
       0.058881257 -0.07163299 0.08057508 0.028619802
000200 41 72 9b ba c2 f3 34 3d 11 2f af 3d 31 21 9e 3b
       -0.0011859612 0.044177778 0.08553899 0.004825734
000210 c6 ef 40 3d 15 1c a6 3d dd 1f 80 3d 0f 1f 10 3e
       0.047103666 0.08110825 0.062560774 0.14074348
000220 8c 0e 32 3e 77 09 34 bd 58 8b 23 bd 9a 25 cc 3d
       0.17388362 -0.04395434 -0.03992781 0.099681094
000230 64 46 93 3c 0f 39 9e 3d e9 57 1c 3d 81 54 17 3d
       0.0179779 0.07725727 0.038169775 0.036945824
000240 44 3f bb bc 93 e0 5c 3d 75 b7 75 b9 e8 69 38 bc
       -0.022857316 0.05392511 -0.00023433364 -0.011255719
000250 ca 43 19 3d 9c f3 a5 bc 36 5c d3 bc d4 f1 24 3d
       0.037418164 -0.020257764 -0.025800806 0.040269688
000260 46 03 07 3d 04 5f c8 3b c5 f2 a1 bd cc 8f f0 bc
       0.032962106 0.0061148424 -0.07907633 -0.029365443
000270 b8 8f a6 3d 94 fe de 3d f1 75 6c 3d a3 2c 9a 3d
       0.08132881 0.10888401 0.057729665 0.07528045
000280 9f 33 14 3d 20 cb 33 bc 4d d7 03 bc a1 60 21 bd
       0.036182042 -0.010973722 -0.008046937 -0.039398793
000290 b9 75 34 3d f2 fa 5c 3d 4a 3c 02 3c 0a e9 83 3d
       0.04405758 0.053950258 0.007948944 0.06440933
0002a0 5b d6 00 3d c5 5b ba bb 1c 54 34 bd d5 ff f7 3d
       0.031454425 -0.0056872093 -0.044025525 0.12109343
0002b0 98 63 69 bd ea 30 d8 3d 6d 39 28 3d 48 cb 80 bd
       -0.056979746 0.105562046 0.04107039 -0.06288773
0002c0 cd 04 0b 3e 6f 72 94 3d 76 eb 9b 3d 33 3d e7 bb
       0.1357605 0.07248389 0.0761327 -0.007056856
0002d0 06 22 93 3c 9f 2b 12 3e 08 99 9f 3d 28 eb 26 3b
       0.01796056 0.14274453 0.0779286 0.0025469754
0002e0 56 8a 70 3d 35 82 8e 3c d5 3a 7a 3d 00 e9 8b bd
       0.058725677 0.017396072 0.061091263 -0.068315506
0002f0 5b 77 13 3d 04 a1 4b bc 84 b2 1e 3d 49 0e ed 3c
       0.036002498 -0.012428526 0.038744465 0.028937476
000300 58 1b 49 bd b5 ec ba 3d 29 dd 9c bd ac 1a 78 3d
       -0.049098343 0.091271795 -0.076593705 0.06057231
000310 c8 06 aa 3d 82 52 12 bb 0c 81 73 bc 05 91 fe 3d
       0.08302075 -0.002232701 -0.01486231 0.12430004
000320 63 e2 b9 3d 62 a4 0e 3e 04 84 37 3e 63 fa 4f bd
       0.09076383 0.13929895 0.17921454 -0.050775897
000330 67 d2 0f 3e 23 bf af 3d 35 a9 05 3d e9 d1 c6 3d
       0.14045106 0.08581378 0.03263207 0.09708006
000340 2b bb cd bc 42 85 13 bd ed ba b8 3d c0 11 3a 3e
       -0.025113663 -0.036015756 0.09020028 0.18170834
000350 80 d5 81 bb 98 4f cb bc cf 20 f3 ba e7 9f 94 3d
       -0.0039622188 -0.024818227 -0.0018549206 0.072570615
000360 36 c8 7b 3c 2a 86 6a 3d 39 6a cc 3d 50 77 a1 3c
       0.015367558 0.057256855 0.09981198 0.019710213
000370 64 1d f3 3c a2 26 85 3c 0a ad a6 3d 46 80 9b 3d
       0.0296771 0.016253773 0.08138473 0.075928256
000380 46 68 63 3d f5 11 99 3d 8d b0 eb 3b 3b 18 cf bc
       0.055519365 0.07474128 0.0071926774 -0.025280109
000390 54 26 db 3d ca 37 31 bc 98 b2 cc 3d ee e0 5a bd
       0.1070067 -0.010816524 0.099950016 -0.053437166
0003a0 e1 d4 6f bd 37 ef 21 bd f0 dd 0a 3d e2 56 02 3e
       -0.058552627 -0.039534774 0.033903062 0.12728456
0003b0 36 5c 08 bd 95 9a 91 bd 1e 51 10 bd 28 fd 8f bd
       -0.033291064 -0.07109562 -0.03523361 -0.070307076
0003c0 88 47 d4 3d e5 80 9c 3d be 53 97 3d b5 39 be bc
       0.10365206 0.07641772 0.073890194 -0.023220876
0003d0 a1 ae 1c 3e 4b 79 34 bc ca c0 cb 3d e6 bd f8 bb
       0.1530099 -0.011015247 0.09948881 -0.007590997
0003e0 d7 68 7c 3d ef 81 c7 3d a5 ad b3 3d ec 4c 15 3d
       0.06162342 0.0974158 0.087733544 0.03645031
0003f0 97 4c 4b 3c 9b c7 87 bc 89 12 0f 3e 81 67 1d 3d
       0.012408397 -0.016574671 0.13971914 0.038428787
